…
 loss 都升高，而 training loss 则在仍在降低。后来看了这个 issue, 想想是真的蠢，训练的脚本还留着原来 fine-tuning 的权值加载，这一波直接过拟合了验证集误差不飞起来才算是出了邪了。\nQuantize the SSD architecture下面是对SSD的各层输入、输出尺寸以及连接情况的一个总结，调用 model.summary() 接口即可实现。除了处理过程中张量的尺寸，我们还能够得到整个模型需要训练的参数个数。在这个实现中整个模型有大约25.7M的参数需要训练。\nVGG16-based SSD\…__________________________________________________________________________________________________Layer (type)                    Output Shape         Param #     Connected to                     ==================================================================================================input_1 (InputLayer)            (None, 300, 300, 3)  0                                            __________________________________________________________________________________________________conv1_1 (Conv2D)                (None, 300, 300, 64) 1792        input_1[0][0]                    __________________________________________________________________________________________________conv1_2 (Conv2D)                (None, 300, 300, 64) 36928       conv1_1[0][0]                    __________________________________________________________________________________________________pool1 (MaxPooling2D)            (None, 150, 150, 64) 0           conv1_2[0][0]                    __________________________________________________________________________________________________conv2_1 (Conv2D)                (None, 150, 150, 128 73856       pool1[0][0]                      __________________________________________________________________________________________________conv2_2 (Conv2D)                (None, 150, 150, 128 147584      conv2_1[0][0]                    __________________________________________________________________________________________________pool2 (MaxPooling2D)            (None, 75, 75, 128)  0           conv2_2[0][0]                    __________________________________________________________________________________________________conv3_1 (Conv2D)                (None, 75, 75, 256)  295168      pool2[0][0]                      __________________________________________________________________________________________________conv3_2 (Conv2D)                (None, 75, 75, 256)  590080      conv3_1[0][0]                    __________________________________________________________________________________________________conv3_3 (Conv2D)                (None, 75, 75, 256)  590080      conv3_2[0][0]                    __________________________________________________________________________________________________pool3 (MaxPooling2D)            (None, 38, 38, 256)  0           conv3_3[0][0]                    __________________________________________________________________________________________________conv4_1 (Conv2D)                (None, 38, 38, 512)  1180160     pool3[0][0]                      __________________________________________________________________________________________________conv4_2 (Conv2D)                (None, 38, 38, 512)  2359808     conv4_1[0][0]                    __________________________________________________________________________________________________conv4_3 (Conv2D)                (None, 38, 38, 512)  2359808     conv4_2[0][0]                    __________________________________________________________________________________________________pool4 (MaxPooling2D)            (None, 19, 19, 512)  0           conv4_3[0][0]                    __________________________________________________________________________________________________conv5_1 (Conv2D)                (None, 19, 19, 512)  2359808     pool4[0][0]                      __________________________________________________________________________________________________conv5_2 (Conv2D)                (None, 19, 19, 512)  2359808     conv5_1[0][0]                    __________________________________________________________________________________________________conv5_3 (Conv2D)                (None, 19, 19, 512)  2359808     conv5_2[0][0]                    __________________________________________________________________________________________________pool5 (MaxPooling2D)            (None, 19, 19, 512)  0           conv5_3[0][0]                    __________________________________________________________________________________________________fc6 (Conv2D)                    (None, 19, 19, 1024) 4719616     pool5[0][0]                      __________________________________________________________________________________________________fc7 (Conv2D)                    (None, 19, 19, 1024) 1049600     fc6[0][0]                        __________________________________________________________________________________________________conv6_1 (Conv2D)                (None, 19, 19, 256)  262400      fc7[0][0]                        __________________________________________________________________________________________________conv6_2 (Conv2D)                (None, 10, 10, 512)  1180160     conv6_1[0][0]                    __________________________________________________________________________________________________conv7_1 (Conv2D)                (None, 10, 10, 128)  65664       conv6_2[0][0]                    __________________________________________________________________________________________________zero_padding2d_1 (ZeroPadding2D (None, 12, 12, 128)  0           conv7_1[0][0]                    __________________________________________________________________________________________________conv7_2 (Conv2D)                (None, 5, 5, 256)    295168      zero_padding2d_1[0][0]           __________________________________________________________________________________________________conv8_1 (Conv2D)                (None, 5, 5, 128)    32896       conv7_2[0][0]                    __________________________________________________________________________________________________conv4_3_norm (Normalize)        (None, 38, 38, 512)  512         conv4_3[0][0]                    __________________________________________________________________________________________________conv8_2 (Conv2D)                (None, 3, 3, 256)    295168      conv8_1[0][0]                    __________________________________________________________________________________________________pool6 (GlobalAveragePooling2D)  (None, 256)          0           conv8_2[0][0]                    __________________________________________________________________________________________________conv4_3_norm_mbox_conf (Conv2D) (None, 38, 38, 63)   290367      conv4_3_norm[0][0]               __________________________________________________________________________________________________fc7_mbox_conf (Conv2D)          (None, 19, 19, 126)  1161342     fc7[0][0]                        __________________________________________________________________________________________________conv6_2_mbox_conf (Conv2D)      (None, 10, 10, 126)  580734      conv6_2[0][0]                    __________________________________________________________________________________________________conv7_2_mbox_conf (Conv2D)      (None, 5, 5, 126)    290430      conv7_2[0][0]                    __________________________________________________________________________________________________conv8_2_mbox_conf (Conv2D)      (None, 3, 3, 126)    290430      conv8_2[0][0]                    __________________________________________________________________________________________________conv4_3_norm_mbox_loc (Conv2D)  (None, 38, 38, 12)   55308       conv4_3_norm[0][0]               __________________________________________________________________________________________________fc7_mbox_loc (Conv2D)           (None, 19, 19, 24)   221208      fc7[0][0]                        __________________________________________________________________________________________________conv6_2_mbox_loc (Conv2D)       (None, 10, 10, 24)   110616      conv6_2[0][0]                    __________________________________________________________________________________________________conv7_2_mbox_loc (Conv2D)       (None, 5, 5, 24)     55320       conv7_2[0][0]                    __________________________________________________________________________________________________conv8_2_mbox_loc (Conv2D)       (None, 3, 3, 24)     55320       conv8_2[0][0]                    __________________________________________________________________________________________________conv4_3_norm_mbox_conf_flat (Fl (None, 90972)        0           conv4_3_norm_mbox_conf[0][0]     __________________________________________________________________________________________________fc7_mbox_conf_flat (Flatten)    (None, 45486)        0           fc7_mbox_conf[0][0]              __________________________________________________________________________________________________conv6_2_mbox_conf_flat (Flatten (None, 12600)        0           conv6_2_mbox_conf[0][0]          __________________________________________________________________________________________________conv7_2_mbox_conf_flat (Flatten (None, 3150)         0           conv7_2_mbox_conf[0][0]          __________________________________________________________________________________________________conv8_2_mbox_conf_flat (Flatten (None, 1134)         0           conv8_2_mbox_conf[0][0]          __________________________________________________________________________________________________pool6_mbox_conf_flat (Dense)    (None, 126)          32382       pool6[0][0]                      __________________________________________________________________________________________________conv4_3_norm_mbox_loc_flat (Fla (None, 17328)        0           conv4_3_norm_mbox_loc[0][0]      __________________________________________________________________________________________________fc7_mbox_loc_flat (Flatten)     (None, 8664)         0           fc7_mbox_loc[0][0]               __________________________________________________________________________________________________conv6_2_mbox_loc_flat (Flatten) (None, 2400)         0           conv6_2_mbox_loc[0][0]           __________________________________________________________________________________________________conv7_2_mbox_loc_flat (Flatten) (None, 600)          0           conv7_2_mbox_loc[0][0]           __________________________________________________________________________________________________conv8_2_mbox_loc_flat (Flatten) (None, 216)          0           conv8_2_mbox_loc[0][0]           __________________________________________________________________________________________________pool6_mbox_loc_flat (Dense)     (None, 24)           6168        pool6[0][0]                      __________________________________________________________________________________________________mbox_conf (Merge)               (None, 153468)       0           conv4_3_norm_mbox_conf_flat[0][0]                                                                 fc7_mbox_conf_flat[0][0]                                                                          conv6_2_mbox_conf_flat[0][0]                                                                      conv7_2_mbox_conf_flat[0][0]                                                                      conv8_2_mbox_conf_flat[0][0]                                                                      pool6_mbox_conf_flat[0][0]       __________________________________________________________________________________________________pool6_reshaped (Reshape)        (None, 1, 1, 256)    0           pool6[0][0]                      __________________________________________________________________________________________________mbox_loc (Merge)                (None, 29232)        0           conv4_3_norm_mbox_loc_flat[0][0]                                                                  fc7_mbox_loc_flat[0][0]                                                                           conv6_2_mbox_loc_flat[0][0]                                                                       conv7_2_mbox_loc_flat[0][0]                                                                       conv8_2_mbox_loc_flat[0][0]                                                                       pool6_mbox_loc_flat[0][0]        __________________________________________________________________________________________________mbox_conf_logits (Reshape)      (None, 7308, 21)     0           mbox_conf[0][0]                  __________________________________________________________________________________________________conv4_3_norm_mbox_priorbox (Pri (None, 4332, 8)      0           conv4_3_norm[0][0]               __________________________________________________________________________________________________fc7_mbox_priorbox (PriorBox)    (None, 2166, 8)      0           fc7[0][0]                        __________________________________________________________________________________________________conv6_2_mbox_priorbox (PriorBox (None, 600, 8)       0           conv6_2[0][0]                    __________________________________________________________________________________________________conv7_2_mbox_priorbox (PriorBox (None, 150, 8)       0           conv7_2[0][0]                    __________________________________________________________________________________________________conv8_2_mbox_priorbox (PriorBox (None, 54, 8)        0           conv8_2[0][0]                    __________________________________________________________________________________________________pool6_mbox_priorbox (PriorBox)  (None, 6, 8)         0           pool6_reshaped[0][0]             __________________________________________________________________________________________________mbox_loc_final (Reshape)        (None, 7308, 4)      0           mbox_loc[0][0]                   __________________________________________________________________________________________________mbox_conf_final (Activation)    (None, 7308, 21)     0           mbox_conf_logits[0][0]           __________________________________________________________________________________________________mbox_priorbox (Merge)           (None, 7308, 8)      0           conv4_3_norm_mbox_priorbox[0][0]                                                                  fc7_mbox_priorbox[0][0]                                                                           conv6_2_mbox_priorbox[0][0]                                                                       conv7_2_mbox_priorbox[0][0]                                                                       conv8_2_mbox_priorbox[0][0]                                                                       pool6_mbox_priorbox[0][0]        __________________________________________________________________________________________________predictions (Merge)             (None, 7308, 33)     0           mbox_loc_final[0][0]                                                                              mbox_conf_final[0][0]                                                                             mbox_priorbox[0][0]              ==================================================================================================Total params: 25,765,497Trainable params: 25,765,497Non-trainable params: 0当特征提取器的网络换成更为轻量级的 MobileNet.v1，我们可以看到参数的量非常显著地减少了。这对于计算资源有限的移动设备或者嵌入式设备非常友好。也是做 FYP 的一个方向之一。\nMobileNet.v1-based SSD\…__________________________________________________________________________________________________Layer (type)                    Output Shape         Param #     Connected to                     ==================================================================================================input_1 (InputLayer)            (None, 300, 300, 3)  0                                            __________________________________________________________________________________________________conv0 (Conv2D)                  (None, 150, 150, 32) 896         input_1[0][0]                    __________________________________________________________________________________________________bn0 (BatchNormalization)        (None, 150, 150, 32) 128         conv0[0][0]                      __________________________________________________________________________________________________activation_1 (Activation)       (None, 150, 150, 32) 0           bn0[0][0]                        __________________________________________________________________________________________________conv1dw (SeparableConv2D)       (None, 150, 150, 32) 1344        activation_1[0][0]               __________________________________________________________________________________________________bn1dw (BatchNormalization)      (None, 150, 150, 32) 128         conv1dw[0][0]                    __________________________________________________________________________________________________activation_2 (Activation)       (None, 150, 150, 32) 0           bn1dw[0][0]                      __________________________________________________________________________________________________conv1 (Conv2D)                  (None, 150, 150, 64) 2112        activation_2[0][0]               __________________________________________________________________________________________________bn1 (BatchNormalization)        (None, 150, 150, 64) 256         conv1[0][0]                      __________________________________________________________________________________________________activation_3 (Activation)       (None, 150, 150, 64) 0           bn1[0][0]                        __________________________________________________________________________________________________conv2dw (SeparableConv2D)       (None, 75, 75, 64)   4736        activation_3[0][0]               __________________________________________________________________________________________________bn2dw (BatchNormalization)      (None, 75, 75, 64)   256         conv2dw[0][0]                    __________________________________________________________________________________________________activation_4 (Activation)       (None, 75, 75, 64)   0           bn2dw[0][0]                      __________________________________________________________________________________________________conv2 (Conv2D)                  (None, 75, 75, 128)  8320        activation_4[0][0]               __________________________________________________________________________________________________bn2 (BatchNormalization)        (None, 75, 75, 128)  512         conv2[0][0]                      __________________________________________________________________________________________________activation_5 (Activation)       (None, 75, 75, 128)  0           bn2[0][0]                        __________________________________________________________________________________________________conv3dw (SeparableConv2D)       (None, 75, 75, 128)  17664       activation_5[0][0]               __________________________________________________________________________________________________bn3dw (BatchNormalization)      (None, 75, 75, 128)  512         conv3dw[0][0]                    __________________________________________________________________________________________________activation_6 (Activation)       (None, 75, 75, 128)  0           bn3dw[0][0]                      __________________________________________________________________________________________________conv3 (Conv2D)                  (None, 75, 75, 128)  16512       activation_6[0][0]               __________________________________________________________________________________________________bn3 (BatchNormalization)        (None, 75, 75, 128)  512         conv3[0][0]                      __________________________________________________________________________________________________activation_7 (Activation)       (None, 75, 75, 128)  0           bn3[0][0]                        __________________________________________________________________________________________________conv4dw (SeparableConv2D)       (None, 38, 38, 128)  17664       activation_7[0][0]               __________________________________________________________________________________________________bn4dw (BatchNormalization)      (None, 38, 38, 128)  512         conv4dw[0][0]                    __________________________________________________________________________________________________activation_8 (Activation)       (None, 38, 38, 128)  0           bn4dw[0][0]                      __________________________________________________________________________________________________conv4 (Conv2D)                  (None, 38, 38, 256)  33024       activation_8[0][0]               __________________________________________________________________________________________________bn4 (BatchNormalization)        (None, 38, 38, 256)  1024        conv4[0][0]                      __________________________________________________________________________________________________activation_9 (Activation)       (None, 38, 38, 256)  0           bn4[0][0]                        __________________________________________________________________________________________________conv5dw (SeparableConv2D)       (None, 38, 38, 256)  68096       activation_9[0][0]               __________________________________________________________________________________________________bn5dw (BatchNormalization)      (None, 38, 38, 256)  1024        conv5dw[0][0]                    __________________________________________________________________________________________________activation_10 (Activation)      (None, 38, 38, 256)  0           bn5dw[0][0]                      __________________________________________________________________________________________________conv5 (Conv2D)                  (None, 38, 38, 256)  65792       activation_10[0][0]              __________________________________________________________________________________________________bn5 (BatchNormalization)        (None, 38, 38, 256)  1024        conv5[0][0]                      __________________________________________________________________________________________________activation_11 (Activation)      (None, 38, 38, 256)  0           bn5[0][0]                        __________________________________________________________________________________________________conv6dw (SeparableConv2D)       (None, 19, 19, 256)  68096       activation_11[0][0]              __________________________________________________________________________________________________bn6dw (BatchNormalization)      (None, 19, 19, 256)  1024        conv6dw[0][0]                    __________________________________________________________________________________________________activation_12 (Activation)      (None, 19, 19, 256)  0           bn6dw[0][0]                      __________________________________________________________________________________________________conv6 (Conv2D)                  (None, 19, 19, 512)  131584      activation_12[0][0]              __________________________________________________________________________________________________bn6 (BatchNormalization)        (None, 19, 19, 512)  2048        conv6[0][0]                      __________________________________________________________________________________________________activation_13 (Activation)      (None, 19, 19, 512)  0           bn6[0][0]                        __________________________________________________________________________________________________conv7dw (SeparableConv2D)       (None, 19, 19, 512)  267264      activation_13[0][0]              __________________________________________________________________________________________________bn7dw (BatchNormalization)      (None, 19, 19, 512)  2048        conv7dw[0][0]                    __________________________________________________________________________________________________activation_14 (Activation)      (None, 19, 19, 512)  0           bn7dw[0][0]                      __________________________________________________________________________________________________conv7 (Conv2D)                  (None, 19, 19, 512)  262656      activation_14[0][0]              __________________________________________________________________________________________________bn7 (BatchNormalization)        (None, 19, 19, 512)  2048        conv7[0][0]                      __________________________________________________________________________________________________activation_15 (Activation)      (None, 19, 19, 512)  0           bn7[0][0]                        __________________________________________________________________________________________________conv8dw (SeparableConv2D)       (None, 19, 19, 512)  267264      activation_15[0][0]              __________________________________________________________________________________________________bn8dw (BatchNormalization)      (None, 19, 19, 512)  2048        conv8dw[0][0]                    __________________________________________________________________________________________________activation_16 (Activation)      (None, 19, 19, 512)  0           bn8dw[0][0]                      __________________________________________________________________________________________________conv8 (Conv2D)                  (None, 19, 19, 512)  262656      activation_16[0][0]              __________________________________________________________________________________________________bn8 (BatchNormalization)        (None, 19, 19, 512)  2048        conv8[0][0]                      __________________________________________________________________________________________________activation_17 (Activation)      (None, 19, 19, 512)  0           bn8[0][0]                        __________________________________________________________________________________________________conv9dw (SeparableConv2D)       (None, 19, 19, 512)  267264      activation_17[0][0]              __________________________________________________________________________________________________bn9dw (BatchNormalization)      (None, 19, 19, 512)  2048        conv9dw[0][0]                    __________________________________________________________________________________________________activation_18 (Activation)      (None, 19, 19, 512)  0           bn9dw[0][0]                      __________________________________________________________________________________________________conv9 (Conv2D)                  (None, 19, 19, 512)  262656      activation_18[0][0]              __________________________________________________________________________________________________bn9 (BatchNormalization)        (None, 19, 19, 512)  2048        conv9[0][0]                      __________________________________________________________________________________________________activation_19 (Activation)      (None, 19, 19, 512)  0           bn9[0][0]                        __________________________________________________________________________________________________conv10dw (SeparableConv2D)      (None, 19, 19, 512)  267264      activation_19[0][0]              __________________________________________________________________________________________________bn10dw (BatchNormalization)     (None, 19, 19, 512)  2048        conv10dw[0][0]                   __________________________________________________________________________________________________activation_20 (Activation)      (None, 19, 19, 512)  0           bn10dw[0][0]                     __________________________________________________________________________________________________conv10 (Conv2D)                 (None, 19, 19, 512)  262656      activation_20[0][0]              __________________________________________________________________________________________________bn10 (BatchNormalization)       (None, 19, 19, 512)  2048        conv10[0][0]                     __________________________________________________________________________________________________activation_21 (Activation)      (None, 19, 19, 512)  0           bn10[0][0]                       __________________________________________________________________________________________________conv11dw (SeparableConv2D)      (None, 19, 19, 512)  267264      activation_21[0][0]              __________________________________________________________________________________________________b11dw (BatchNormalization)      (None, 19, 19, 512)  2048        conv11dw[0][0]                   __________________________________________________________________________________________________activation_22 (Activation)      (None, 19, 19, 512)  0           b11dw[0][0]                      __________________________________________________________________________________________________conv11 (Conv2D)                 (None, 19, 19, 512)  262656      activation_22[0][0]              __________________________________________________________________________________________________bn11 (BatchNormalization)       (None, 19, 19, 512)  2048        conv11[0][0]                     __________________________________________________________________________________________________activation_23 (Activation)      (None, 19, 19, 512)  0           bn11[0][0]                       __________________________________________________________________________________________________conv12dw (SeparableConv2D)      (None, 10, 10, 512)  267264      activation_23[0][0]              __________________________________________________________________________________________________bn12dw (BatchNormalization)     (None, 10, 10, 512)  2048        conv12dw[0][0]                   __________________________________________________________________________________________________activation_24 (Activation)      (None, 10, 10, 512)  0           bn12dw[0][0]                     __________________________________________________________________________________________________conv12 (Conv2D)                 (None, 10, 10, 1024) 525312      activation_24[0][0]              __________________________________________________________________________________________________bn12 (BatchNormalization)       (None, 10, 10, 1024) 4096        conv12[0][0]                     __________________________________________________________________________________________________activation_25 (Activation)      (None, 10, 10, 1024) 0           bn12[0][0]                       __________________________________________________________________________________________________conv13dw (SeparableConv2D)      (None, 10, 10, 1024) 1058816     activation_25[0][0]              __________________________________________________________________________________________________bn13dw (BatchNormalization)     (None, 10, 10, 1024) 4096        conv13dw[0][0]                   __________________________________________________________________________________________________activation_26 (Activation)      (None, 10, 10, 1024) 0           bn13dw[0][0]                     __________________________________________________________________________________________________conv13 (Conv2D)                 (None, 10, 10, 1024) 1049600     activation_26[0][0]              __________________________________________________________________________________________________bn13 (BatchNormalization)       (None, 10, 10, 1024) 4096        conv13[0][0]                     __________________________________________________________________________________________________activation_27 (Activation)      (None, 10, 10, 1024) 0           bn13[0][0]                       __________________________________________________________________________________________________conv14_1 (Conv2D)               (None, 10, 10, 256)  262400      activation_27[0][0]              __________________________________________________________________________________________________bn14_1 (BatchNormalization)     (None, 10, 10, 256)  1024        conv14_1[0][0]                   __________________________________________________________________________________________________activation_28 (Activation)      (None, 10, 10, 256)  0           bn14_1[0][0]                     __________________________________________________________________________________________________conv14_2 (Conv2D)               (None, 5, 5, 512)    1180160     activation_28[0][0]              __________________________________________________________________________________________________bn14_2 (BatchNormalization)     (None, 5, 5, 512)    2048        conv14_2[0][0]                   __________________________________________________________________________________________________activation_29 (Activation)      (None, 5, 5, 512)    0           bn14_2[0][0]                     __________________________________________________________________________________________________conv15_1 (Conv2D)               (None, 5, 5, 128)    65664       activation_29[0][0]              __________________________________________________________________________________________________bn15_1 (BatchNormalization)     (None, 5, 5, 128)    512         conv15_1[0][0]                   __________________________________________________________________________________________________activation_30 (Activation)      (None, 5, 5, 128)    0           bn15_1[0][0]                     __________________________________________________________________________________________________conv15_2 (Conv2D)               (None, 3, 3, 256)    295168      activation_30[0][0]              __________________________________________________________________________________________________bn15_2 (BatchNormalization)     (None, 3, 3, 256)    1024        conv15_2[0][0]                   __________________________________________________________________________________________________activation_31 (Activation)      (None, 3, 3, 256)    0           bn15_2[0][0]                     __________________________________________________________________________________________________conv16_1 (Conv2D)               (None, 3, 3, 128)    32896       activation_31[0][0]              __________________________________________________________________________________________________bn16_1 (BatchNormalization)     (None, 3, 3, 128)    512         conv16_1[0][0]                   __________________________________________________________________________________________________activation_32 (Activation)      (None, 3, 3, 128)    0           bn16_1[0][0]                     __________________________________________________________________________________________________conv16_2 (Conv2D)               (None, 2, 2, 256)    295168      activation_32[0][0]              __________________________________________________________________________________________________bn16_2 (BatchNormalization)     (None, 2, 2, 256)    1024        conv16_2[0][0]                   __________________________________________________________________________________________________activation_33 (Activation)      (None, 2, 2, 256)    0           bn16_2[0][0]                     __________________________________________________________________________________________________conv17_1 (Conv2D)               (None, 2, 2, 64)     16448       activation_33[0][0]              __________________________________________________________________________________________________bn17_1 (BatchNormalization)     (None, 2, 2, 64)     256         conv17_1[0][0]                   __________________________________________________________________________________________________activation_34 (Activation)      (None, 2, 2, 64)     0           bn17_1[0][0]                     __________________________________________________________________________________________________conv17_2 (Conv2D)               (None, 1, 1, 128)    73856       activation_34[0][0]              __________________________________________________________________________________________________bn17_2 (BatchNormalization)     (None, 1, 1, 128)    512         conv17_2[0][0]                   __________________________________________________________________________________________________activation_35 (Activation)      (None, 1, 1, 128)    0           bn17_2[0][0]                     __________________________________________________________________________________________________conv11_mbox_conf (Conv2D)       (None, 19, 19, 63)   32319       activation_23[0][0]              __________________________________________________________________________________________________conv13_mbox_conf (Conv2D)       (None, 10, 10, 126)  129150      activation_27[0][0]              __________________________________________________________________________________________________conv14_2_mbox_conf (Conv2D)     (None, 5, 5, 126)    64638       activation_29[0][0]              __________________________________________________________________________________________________conv15_2_mbox_conf (Conv2D)     (None, 3, 3, 126)    32382       activation_31[0][0]              __________________________________________________________________________________________________conv16_2_mbox_conf (Conv2D)     (None, 2, 2, 126)    32382       activation_33[0][0]              __________________________________________________________________________________________________conv17_2_mbox_conf (Conv2D)     (None, 1, 1, 126)    16254       activation_35[0][0]              __________________________________________________________________________________________________conv11_mbox_loc (Conv2D)        (None, 19, 19, 12)   6156        activation_23[0][0]              __________________________________________________________________________________________________conv13_mbox_loc (Conv2D)        (None, 10, 10, 24)   24600       activation_27[0][0]              __________________________________________________________________________________________________conv14_2_mbox_loc (Conv2D)      (None, 5, 5, 24)     12312       activation_29[0][0]              __________________________________________________________________________________________________conv15_2_mbox_loc (Conv2D)      (None, 3, 3, 24)     6168        activation_31[0][0]              __________________________________________________________________________________________________conv16_2_mbox_loc (Conv2D)      (None, 2, 2, 24)     6168        activation_33[0][0]              __________________________________________________________________________________________________conv17_2_mbox_loc (Conv2D)      (None, 1, 1, 24)     3096        activation_35[0][0]              __________________________________________________________________________________________________conv11_mbox_conf_flat (Flatten) (None, 22743)        0           conv11_mbox_conf[0][0]           __________________________________________________________________________________________________conv13_mbox_conf_flat (Flatten) (None, 12600)        0           conv13_mbox_conf[0][0]           __________________________________________________________________________________________________conv14_2_mbox_conf_flat (Flatte (None, 3150)         0           conv14_2_mbox_conf[0][0]         __________________________________________________________________________________________________conv15_2_mbox_conf_flat (Flatte (None, 1134)         0           conv15_2_mbox_conf[0][0]         __________________________________________________________________________________________________conv16_2_mbox_conf_flat (Flatte (None, 504)          0           conv16_2_mbox_conf[0][0]         __________________________________________________________________________________________________conv17_2_mbox_conf_flat (Flatte (None, 126)          0           conv17_2_mbox_conf[0][0]         __________________________________________________________________________________________________conv11_mbox_loc_flat (Flatten)  (None, 4332)         0           conv11_mbox_loc[0][0]            __________________________________________________________________________________________________conv13_mbox_loc_flat (Flatten)  (None, 2400)         0           conv13_mbox_loc[0][0]            __________________________________________________________________________________________________conv14_2_mbox_loc_flat (Flatten (None, 600)          0           conv14_2_mbox_loc[0][0]          __________________________________________________________________________________________________conv15_2_mbox_loc_flat (Flatten (None, 216)          0           conv15_2_mbox_loc[0][0]          __________________________________________________________________________________________________conv16_2_mbox_loc_flat (Flatten (None, 96)           0           conv16_2_mbox_loc[0][0]          __________________________________________________________________________________________________conv17_2_mbox_loc_flat (Flatten (None, 24)           0           conv17_2_mbox_loc[0][0]          __________________________________________________________________________________________________mbox_conf (Concatenate)         (None, 40257)        0           conv11_mbox_conf_flat[0][0]                                                                       conv13_mbox_conf_flat[0][0]                                                                       conv14_2_mbox_conf_flat[0][0]                                                                     conv15_2_mbox_conf_flat[0][0]                                                                     conv16_2_mbox_conf_flat[0][0]                                                                     conv17_2_mbox_conf_flat[0][0]    __________________________________________________________________________________________________mbox_loc (Concatenate)          (None, 7668)         0           conv11_mbox_loc_flat[0][0]                                                                        conv13_mbox_loc_flat[0][0]                                                                        conv14_2_mbox_loc_flat[0][0]                                                                      conv15_2_mbox_loc_flat[0][0]                                                                      conv16_2_mbox_loc_flat[0][0]                                                                      conv17_2_mbox_loc_flat[0][0]     __________________________________________________________________________________________________mbox_conf_logits (Reshape)      (None, 1917, 21)     0           mbox_conf[0][0]                  __________________________________________________________________________________________________conv11_mbox_priorbox (PriorBox) (None, 1083, 8)      0           activation_23[0][0]              __________________________________________________________________________________________________conv13_mbox_priorbox (PriorBox) (None, 600, 8)       0           activation_27[0][0]              __________________________________________________________________________________________________conv14_2_mbox_priorbox (PriorBo (None, 150, 8)       0           activation_29[0][0]              __________________________________________________________________________________________________conv15_2_mbox_priorbox (PriorBo (None, 54, 8)        0           activation_31[0][0]              __________________________________________________________________________________________________conv16_2_mbox_priorbox (PriorBo (None, 24, 8)        0           activation_33[0][0]              __________________________________________________________________________________________________conv17_2_mbox_priorbox (PriorBo (None, 6, 8)         0           activation_35[0][0]              __________________________________________________________________________________________________mbox_loc_final (Reshape)        (None, 1917, 4)      0           mbox_loc[0][0]                   __________________________________________________________________________________________________mbox_conf_final (Activation)    (None, 1917, 21)     0           mbox_conf_logits[0][0]           __________________________________________________________________________________________________mbox_priorbox (Concatenate)     (None, 1917, 8)      0           conv11_mbox_priorbox[0][0]                                                                        conv13_mbox_priorbox[0][0]                                                                        conv14_2_mbox_priorbox[0][0]                                                                      conv15_2_mbox_priorbox[0][0]                                                                      conv16_2_mbox_priorbox[0][0]                                                                      conv17_2_mbox_priorbox[0][0]     __________________________________________________________________________________________________predictions (Concatenate)       (None, 1917, 33)     0           mbox_loc_final[0][0]                                                                              mbox_conf_final[0][0]                                                                             mbox_priorbox[0][0]              ==================================================================================================Total params: 8,624,505Trainable params: 8,599,161Non-trainabl
…
